6_口罩佩戴检测/archive/results/temp.pth (torch_old, 258184 bytes, 27 tensors)

mobilebone.0.0.weight f4 [32, 3, 3, 3]
0	0xbd9263e3	-0.07147958
1	0xbd7fbe3c	-0.06243728
2	0xbcabcaa7	-0.020970656
3	0xbd25d1a6	-0.04048314
4	0xbe3908e2	-0.18069795
5	0x3c830dee	0.015997853
6	0xbcdbd281	-0.026833775
7	0xbe06bf88	-0.13159001
8	0x3df12b46	0.11775832
9	0x3da85323	0.08218982
10	0xbd2d0d16	-0.042248808
11	0xbc679983	-0.014135721
12	0xbd574fac	-0.052566215
13	0x3d850b48	0.06496292
14	0xba8a664f	-0.0010559055
15	0x3d93760f	0.07200252
16	0xbc546c98	-0.012965344
17	0x3cd236cd	0.025660897
18	0xbb10bb98	-0.002208447
19	0xbe3a718c	-0.18207377
20	0x3d107f3d	0.035277594
21	0xbe118fa5	-0.14214952
22	0xbcc50e05	-0.024054537
23	0x3d52dbc2	0.05147911
24	0x3ba22989	0.004948799
25	0x3de40414	0.1113359
26	0x3de3ad7e	0.111170754
27	0xbc5138af	-0.012769862
28	0x3de55b58	0.11199063
29	0x3e2f3309	0.17109312
30	0x3d32b894	0.04363306
31	0xbe1930c9	-0.14960016
32	0xbd70c420	-0.05878079
33	0xbde350d4	-0.11099401
34	0xbd3099e2	-0.043115504
35	0x3dea53c7	0.114417605
36	0x3e271f1c	0.16320461
37	0xbe4b01af	-0.19824861
38	0x3e07ba1a	0.13254586
39	0x3e1a1262	0.15046075
40	0xbc74c295	-0.01493897
41	0xbd184dff	-0.037183758
42	0xbddf847c	-0.10913941
43	0xbe04487c	-0.12918276
44	0x3d6ce281	0.0578332
45	0x3dbca723	0.09211566
46	0x3c0e8c31	0.008700416
47	0xbd827b6b	-0.06371196
48	0x3e19c26e	0.15015575
49	0xb9e74017	-0.00044107504
50	0x3b699e33	0.0035647273
51	0xbdf852f3	-0.12125196
52	0x3d605436	0.05476781
53	0xbd00b043	-0.031418096
54	0x3ce8a98f	0.028401164
55	0x3d85af4c	0.06527576
56	0x3e594c68	0.21220553
57	0x3cb313f5	0.021860102
58	0xbe4b0002	-0.19824222
59	0xbd92d4c6	-0.071694896
60	0x3e54b0b3	0.2077053
61	0x3d9e30f3	0.0772418
62	0x3df4aabb	0.11946627
63	0xbdc7285b	-0.09724494
64	0x3cfeae5b	0.031088999
65	0x3e252e01	0.1613083
66	0xbd9e9ac1	-0.07744361
67	0xbe161e34	-0.14659959
68	0x3d55e677	0.05222174
69	0xbe095af9	-0.1341361
70	0x3d87bf3e	0.066282734
71	0xbcb67134	-0.022270776
72	0x3dd5e6ad	0.104443885
73	0x3d10045f	0.03516042
74	0xbc289a39	-0.010290676
75	0xbe23d057	-0.15997444
76	0xbe41c976	-0.18924507
77	0xbc217b0d	-0.009855998
78	0xbe0170c9	-0.1264068
79	0x3d595e5c	0.053068504
80	0x3e1e9f2d	0.15490408
81	0x3d694eb3	0.05695982
82	0xbd0e385c	-0.034721717
83	0x3e08aa70	0.13346267
84	0xbd958fd5	-0.073028244
85	0xbd052346	-0.032504342
86	0xbce21c49	-0.027601378
87	0x3d05dc54	0.032680824
88	0xbe3c83be	-0.1840963
89	0xbdcde30b	-0.10053071
90	0x3cd2bf3d	0.025725955
91	0x3d11db55	0.035609562
92	0xbc58824e	-0.013214661
93	0xbda1e41a	-0.07904835
94	0xbd72d1dd	-0.059282172
95	0x3ddb5563	0.107096456
96	0x3db65350	0.08902609
97	0x3c04b0e4	0.008098815
98	0xba884f5e	-0.001039963
99	0xbda42c26	-0.08016233
100	0x3c8f4a43	0.017491465
101	0xbda959f5	-0.08269111
102	0xbdced5ca	-0.10099371
103	0xbd2bf3f4	-0.0419807
104	0x3dbe713e	0.09298943
105	0x3dccdb77	0.10002797
106	0xbd82cbd4	-0.063865334
107	0x3d14340e	0.036182456
108	0xbddb58d9	-0.10710306
109	0x3d405b87	0.046962287
110	0xbdfd708e	-0.12374984
111	0x3c9c0d22	0.019049231
112	0x3cb4d865	0.022075841
113	0x3c125b2a	0.008932868
114	0xbc9130ea	-0.01772352
115	0x3de860fa	0.11346622
116	0xbe1a0e75	-0.15044577
117	0xbdf3354f	-0.11875402
118	0xbd6e3afa	-0.058161713
119	0x3dc6af47	0.097014
120	0x3c6be89c	0.01439872
121	0x3dc6b83b	0.09703108
122	0x3de25319	0.11051006
123	0x3e060a1d	0.13089795
124	0x3d407998	0.04699096
125	0x3e0383fa	0.12843314
126	0xbcacb8a8	-0.021084145
127	0xba9e5398	-0.0012079356
128	0xbc9312f8	-0.017953381
129	0x3d94b766	0.07261543
130	0x3e24076f	0.1601846
131	0xbd9b76c0	-0.07591009
132	0x3dd7dc84	0.10540107
133	0xbdbb9705	-0.09159664
134	0x3c3e2b2e	0.0116069745
135	0x3dcf6d3a	0.10128255
136	0x3d975997	0.07390135
137	0x3df6850f	0.12037098
138	0xbe34d0d3	-0.17657785
139	0x3dbdb747	0.09263473
140	0xbdb44309	-0.088018484
141	0xbd89f144	-0.06735471
142	0xbdf5d03d	-0.12002609
143	0xbe0e7a4f	-0.13913845
144	0x3ba44436	0.005013014
145	0xbdb6a358	-0.08917874
146	0x3daa5327	0.08316641
147	0x3e24d756	0.16097769
148	0x3dfc77fb	0.12327572
149	0x3dff8b13	0.12477698
150	0x3d9b70cb	0.07589873
151	0xbc27e204	-0.010246757
152	0xbe1bb2a0	-0.15204859
153	0x3ddc5b57	0.10759609
154	0xbcd272ee	-0.025689568
155	0xbdc95f55	-0.09832636
156	0xbc9b663e	-0.018969651
157	0xbe1ba09d	-0.15197988
158	0xbd8c9bca	-0.06865652
159	0xbe129dc2	-0.14317992
160	0xbd1abda0	-0.037778497
161	0xbde03487	-0.10947519
162	0x39d1b061	0.00039995
163	0x3dadc201	0.08484269
164	0x3d491b68	0.049098402
165	0x3d29ce91	0.041456763
166	0xbd3fe7ae	-0.046851806
167	0x3d494961	0.049142245
168	0x3de57749	0.112043925
169	0x3e176e3e	0.14788148
170	0xbd3f7eb1	-0.04675168
171	0xbd6c196b	-0.057641428
172	0xbdcbab28	-0.09944755
173	0xbdada594	-0.08478847
174	0x3d75834e	0.059939675
175	0xbd67be12	-0.05657775
176	0xbd38b21f	-0.045091745
177	0x3b9dfa4d	0.004821098
178	0x3e84056b	0.25785384
179	0xbd0db6fa	-0.03459833
180	0xbcd86db1	-0.026419492
181	0xbde00e3c	-0.10940215
182	0xbba27eac	-0.004958948
183	0xbb880572	-0.0041510398
184	0x3e34611a	0.17615166
185	0xbc82fa9a	-0.015988637
186	0xbaa00c29	-0.0012210655
187	0xbd96f5ae	-0.073710784
188	0x3b8b81ab	0.004257401
189	0xbe31f66f	-0.17379163
190	0x3d723a1e	0.059137456
191	0xbde555ea	-0.111980274
192	0x3d6928e1	0.05692375
193	0xbdfbc0f7	-0.122926645
194	0xbc92d64c	-0.01792445
195	0x3cd025fa	0.025408734
196	0xbe33fef8	-0.17577732
197	0xbbca320f	-0.006170518
198	0xbe14a0f0	-0.14514518
199	0x3d242b79	0.04008052
200	0x3e29a6d4	0.16567546
201	0x3de0a1ed	0.10968385
202	0x3a99cb78	0.0011733612
203	0x3e1ab1a3	0.15106826
204	0xbe4004a6	-0.18751773
205	0x3b050239	0.0020295514
206	0x3bebec21	0.0071997796
207	0xbd8f7503	-0.0700474
208	0x3d9324d0	0.07184756
209	0x3c512108	0.012764223
210	0x3e01d4e3	0.12678866
211	0x3cc581a1	0.024109663
212	0x3d84997e	0.06474589
213	0x3dac0650	0.083996415
214	0x3d5ed8f6	0.05440613
215	0xbd595376	-0.05305811
216	0x3d79d273	0.060991716
217	0x3dc1abd1	0.094565995
218	0x3c371ece	0.011176778
219	0x3dd57f4d	0.10424671
220	0x3e752e75	0.23943503
221	0x3d80e7c1	0.062942035
222	0x3d9fdaf1	0.07805432
223	0xbb97f258	-0.004637044
224	0xbd637ce3	-0.055539023
225	0xbdebc28a	-0.11511715
226	0xbc5d4a0b	-0.013506423
227	0x3e73f71a	0.2382473
228	0xbd45430d	-0.048159648
229	0xbcfaca5c	-0.03061407
230	0xbc207f2a	-0.009795943
231	0xbce6d5bf	-0.028178094
232	0x3d339ce2	0.043850787
233	0x3d7379b3	0.059442233
234	0xbdde5354	-0.10855737
235	0x3d3510c8	0.044205457
236	0xbd767df6	-0.06017872
237	0xbd4c6f8d	-0.04991107
238	0x3d4e551c	0.050374135
239	0xbd11c687	-0.03558972
240	0xbdaf06df	-0.085462324
241	0xbd233c87	-0.039852645
242	0x3bce32db	0.0062926835
243	0xbe1c1897	-0.15243755
244	0xbc9f75db	-0.019465378
245	0xbe82bbfe	-0.25534052
246	0xbd8da8db	-0.06916972
247	0xbd763eed	-0.060118604
248	0x3d1c30a4	0.038132325
249	0x3d71976f	0.05898231
250	0x3d1c800e	0.03820806
251	0x3d4c68b1	0.04990453
252	0xbe1bbd12	-0.15208843
253	0x3d69dfe1	0.057098273
254	0x3c7fdac9	0.015616127
255	0x3d853141	0.06503535

mobilebone.0.1.weight f4 [32]
0	0x3f79ab0b	0.97526616
1	0x3f85e9e8	1.0462008
2	0x3f81a86a	1.0129521
3	0x3f7c26dc	0.98496795
4	0x3f769d2f	0.96333593
5	0x3f7d1db1	0.9887343
6	0x3f82994f	1.0203036
7	0x3f6f3422	0.93438923
8	0x3f7b862f	0.9825162
9	0x3f784bd7	0.9699072
10	0x3f802710	1.0011921
11	0x3f777ea3	0.9667761
12	0x3f82946a	1.0201542
13	0x3f7e6bb6	0.99383104
14	0x3f856b4e	1.0423372
15	0x3f71293d	0.9420355
16	0x3f80086c	1.000257
17	0x3f7d8bee	0.9904164
18	0x3f834004	1.0253911
19	0x3f7cf7c8	0.98815584
20	0x3f797bdc	0.9745462
21	0x3f877d86	1.0585182
22	0x3f7e2b77	0.9928507
23	0x3f8135a3	1.0094494
24	0x3f79759d	0.9744509
25	0x3f813290	1.0093555
26	0x3f79c910	0.9757242
27	0x3f8249d8	1.0178785
28	0x3f840568	1.031415
29	0x3f820740	1.0158463
30	0x3f736c4f	0.9508714
31	0x3f831a07	1.0242318

mobilebone.0.1.bias f4 [32]
0	0xbd55c409	-0.052188907
1	0x3cfb9d73	0.030714726
2	0xbc9db93d	-0.019253368
3	0xbcbbb549	-0.022913592
4	0x3c5bf32e	0.013424678
5	0xbd0404d2	-0.03223116
6	0xbc49e5df	-0.012322872
7	0xbb09d8ce	-0.0021033767
8	0xbd00e2bc	-0.03146623
9	0xba50590e	-0.00079478405
10	0x3ce3e467	0.027818872
11	0xbcdc5099	-0.0268939
12	0x3c2a872a	0.010408202
13	0xbc5aafbf	-0.013347565
14	0x3c9db697	0.019252105
15	0x3cad809c	0.02117949
16	0xbdac1df8	-0.084041536
17	0xba55a37e	-0.00081496674
18	0xbd037091	-0.032089774
19	0xbd41281b	-0.04715739
20	0xbd5553ee	-0.052081995
21	0x3d8b5fe9	0.06805403
22	0xbce0c336	-0.027436834
23	0xbce8b94c	-0.028408669
24	0xbd8a9e03	-0.067684196
25	0xbcb9cc31	-0.022680374
26	0xbd1a7274	-0.037706807
27	0x3d8a84e8	0.06763631
28	0xba3295a8	-0.00068124617
29	0xbc8c017d	-0.017090553
30	0xbb77fc8a	-0.0037839734
31	0x3c720f56	0.014774164

mobilebone.0.1.running_mean f4 [32]
0	0xbe28ebc0	-0.16496181
1	0x3d8fc7b0	0.07020509
2	0x3df39486	0.11893563
3	0xbe00a2e3	-0.12562136
4	0x3e0adc26	0.13560542
5	0xbe5ae20d	-0.21375294
6	0x3e2c3706	0.16817865
7	0xbd2dfe24	-0.042478696
8	0x3e7ff649	0.24996294
9	0xbe187260	-0.1488738
10	0xbe4eaee8	-0.20183909
11	0xbd667403	-0.05626298
12	0x3e589bbe	0.21153161
13	0xbe9da60d	-0.3079075
14	0x3e154dc8	0.14580452
15	0xbe26d091	-0.162905
16	0x3e6a2579	0.22865857
17	0xbe41a68b	-0.18911187
18	0x3e26efe0	0.16302443
19	0xbb86cf61	-0.004114077
20	0x3dbcf55c	0.09226486
21	0x3dcba887	0.099442534
22	0xbe6fb40c	-0.23408526
23	0xbe8b788c	-0.27240407
24	0x3da70005	0.081543006
25	0xbeda5997	-0.42646477
26	0x3d66e836	0.056373797
27	0xbd76ec48	-0.06028393
28	0xbd6c64b2	-0.057713218
29	0x3da58894	0.08082691
30	0x3d74e405	0.05978777
31	0xbeb77478	-0.35831046

mobilebone.0.1.running_var f4 [32]
0	0x3c2346df	0.009965627
1	0x3b3f2821	0.0029168206
2	0x3bd9f395	0.0066513517
3	0x3baeaae1	0.005330429
4	0x3c25f918	0.010130189
5	0x3c9147c5	0.017734418
6	0x3c20f1c2	0.009823265
7	0x3b4affdf	0.0030975265
8	0x3cadd607	0.02122022
9	0x3c149ebf	0.009071051
10	0x3c9d7ed3	0.019225514
11	0x3b493d46	0.0030706688
12	0x3c9a5b54	0.018842377
13	0x3d18f75f	0.037345286
14	0x3c03001a	0.00799563
15	0x3c5f438e	0.013626946
16	0x3cc74441	0.024324538
17	0x3c5eb478	0.013592832
18	0x3c1799dd	0.009252992
19	0x3b65a0fd	0.0035038583
20	0x3bc98679	0.0061500636
21	0x3bb0b561	0.005392716
22	0x3cae73c9	0.021295445
23	0x3cd3ddfc	0.025862686
24	0x3b8b52d3	0.004251817
25	0x3d851a8c	0.06499204
26	0x3abd70e8	0.0014453204
27	0x3ba2499c	0.0049526226
28	0x3af259d7	0.0018489909
29	0x3bb30f70	0.005464487
30	0x3bad19e2	0.0052826265
31	0x3d438fd4	0.047744587

mobilebone.1.0.weight f4 [64, 32, 1, 1]
0	0x3d9ab4c9	0.07554013
1	0x3c6d180f	0.014471068
2	0xbe8f0db8	-0.27940154
3	0x3cdf9dee	0.027296986
4	0xbe2be8ff	-0.167881
5	0x3e0dabc4	0.13835055
6	0x39ace201	0.00032974783
7	0xbe2698b6	-0.16269192
8	0x3dc84895	0.09779469
9	0xbe068e69	-0.13140263
10	0x3d9c6028	0.07635528
11	0x3d7a89cc	0.06116657
12	0x3c3e9361	0.011631818
13	0x3b61a1f7	0.0034428814
14	0xbd49e8d6	-0.049294315
15	0x3e5d3528	0.21602309
16	0xbe592822	-0.21206716
17	0xbd3b9cbb	-0.045803767
18	0x3e2d3955	0.16916402
19	0x3db14815	0.08656327
20	0x3e6d20db	0.23157065
21	0x3d7dae66	0.061933897
22	0x3e853ad1	0.26021436
23	0x3e37e7cf	0.17959522
24	0xbe282628	-0.16420805
25	0x3ea2c70e	0.31792492
26	0x3e4c9e89	0.19982351
27	0xbe58fd62	-0.21190408
28	0x3e110942	0.14163688
29	0x3e039728	0.1285063
30	0xbd486630	-0.04892558
31	0x3e0387e7	0.12844811
32	0x3d3e4ec5	0.04646184
33	0xbe010220	-0.12598467
34	0x3ec531ba	0.385145
35	0x3de016b2	0.10941829
36	0xbe44cf68	-0.19219744
37	0xbd67cfe4	-0.056594744
38	0x3ea56ee9	0.3231118
39	0x3ea0aadb	0.31380352
40	0x3e2d2f49	0.16912569
41	0x3e7ef976	0.2489985
42	0xbd877b50	-0.06615317
43	0xbe077524	-0.1322828
44	0x3e196be3	0.14982562
45	0x3ecde65b	0.4021481
46	0x3de19c3c	0.110161275
47	0x3d04abaf	0.032390293
48	0xbe26fcb9	-0.16307344
49	0xbb56ce0a	-0.0032776617
50	0x3e61ccd3	0.2205079
51	0x3ce49f37	0.02790795
52	0xbd8cbd90	-0.06872094
53	0xbdcf7a46	-0.10130744
54	0x3e6e0ed6	0.23247847
55	0xbe083499	-0.13301314
56	0x3cf36bae	0.029714432
57	0xbdbe62a8	-0.09296161
58	0xbd0d9ec7	-0.03457525
59	0xbda6eb68	-0.08150369
60	0x3e435352	0.19074753
61	0x3e5c19cf	0.2149422
62	0x3defbeb6	0.11706297
63	0xbe4a1563	-0.19734721
64	0xbe573576	-0.21016487
65	0xbdef5e92	-0.1168796
66	0xbead7e5e	-0.33885473
67	0xbdc52b7f	-0.09627437
68	0xbc02c3e9	-0.007981279
69	0xbe5efb8b	-0.21775644
70	0x3e56dcf6	0.20982727
71	0x3cd3954b	0.025828024
72	0x3d9f668d	0.07783232
73	0x3d89c3d9	0.06726808
74	0xbe937dc8	-0.288069
75	0xbdc917b5	-0.09818975
76	0x3dfd9d63	0.12383535
77	0x3cd26770	0.025684088
78	0xbe0f1aeb	-0.13975112
79	0xbe18d74f	-0.14925884
80	0xbe015193	-0.12628774
81	0x3e86ec4b	0.26352152
82	0x3d29af25	0.041426796
83	0xbe2d2b86	-0.16911134
84	0x3dbf88ea	0.09352286
85	0xbdcda04f	-0.10040342
86	0x3cc223da	0.023698736
87	0xbe0559d7	-0.13022552
88	0xbe0c0009	-0.13671888
89	0xbdd4812c	-0.103762
90	0xbdf16558	-0.11786908
91	0xbeedda0c	-0.4645542
92	0xbe406e32	-0.18792036
93	0xbe506cb5	-0.20353968
94	0x3e17bc49	0.14817919
95	0xbe0bae95	-0.13640817
96	0x3e8913b0	0.26772833
97	0x3ca491e5	0.0200891
98	0xbc28fa64	-0.010313604
99	0xbe538173	-0.2065485
100	0x3d8664ec	0.06562218
101	0x3e0c092b	0.13675372
102	0x3ebab8cd	0.36469117
103	0xbd6faeb1	-0.058516208
104	0xbe97e0bb	-0.29663643
105	0xbd654f58	-0.05598387
106	0xbdb4867d	-0.08814714
107	0xbd9bba6e	-0.07603918
108	0xbe2ae3f3	-0.16688518
109	0x3e53e595	0.20693047
110	0xbd6d542a	-0.057941593
111	0xbe2802a4	-0.16407257
112	0xbe6739b0	-0.225806
113	0xbbc5b28a	-0.0060332464
114	0x3e20545b	0.15657179
115	0xbeb154ca	-0.34635
116	0xbf12cd96	-0.5734495
117	0x3bf59166	0.0074941395
118	0x3de9039a	0.1137764
119	0xbd5f8673	-0.05457158
120	0xbebc840f	-0.36819503
121	0xbd616d45	-0.05503585
122	0xbde9e56f	-0.11420714
123	0xbd3db351	-0.046313588
124	0xbe1f00fd	-0.15527721
125	0x3ddc2cac	0.10750708
126	0xbcc4468a	-0.023959417
127	0x3d9ea13b	0.07745596
128	0x3e146365	0.14491041
129	0x3df72d8d	0.12069235
130	0xbe56d967	-0.2098137
131	0xbe5046d4	-0.20339519
132	0x3e5a3ba7	0.21311818
133	0xbe046ab9	-0.12931336
134	0x3de382ab	0.11108907
135	0x3da5e125	0.080995835
136	0x3dd5e315	0.10443703
137	0x3d82e256	0.063908264
138	0x3e15a9a7	0.14615498
139	0x3df390d5	0.11892859
140	0x3d7b72cb	0.061388772
141	0xbd6b684f	-0.057472523
142	0xbe1f728a	-0.15571037
143	0x3caf9e61	0.021437826
144	0xbd20a4be	-0.03921961
145	0x3c1f7df0	0.009734616
146	0x3da250d3	0.07925572
147	0xbd31c8b5	-0.0434043
148	0x3da75b38	0.081716955
149	0x3e1df974	0.1542719
150	0x3d1fda3c	0.039026484
151	0x3d9751a0	0.073886156
152	0xbeb70fe8	-0.35754323
153	0xbe13a1de	-0.14417216
154	0xbea93cab	-0.33054098
155	0xbe0b537c	-0.13606066
156	0xbe83add4	-0.25718558
157	0x3ec186b6	0.3779809
158	0x3d56d6aa	0.052450813
159	0xbce8db35	-0.028424839
160	0x3df17abc	0.11790988
161	0xbe6e1f4f	-0.23254131
162	0x3b6d5ffc	0.0036220541
163	0x3dc5eb73	0.09664049
164	0x3c6f7368	0.014614917
165	0x3decd66a	0.11564334
166	0xbe3c7fcf	-0.1840813
167	0xbe18a209	-0.14905562
168	0xbe1ae1c8	-0.15125191
169	0xbe120914	-0.14261276
170	0xbe0d3dbf	-0.13793086
171	0xbd8a7398	-0.06760329
172	0x3d387095	0.04502924
173	0x3d1b1f74	0.037871793
174	0x3db74c6f	0.089501254
175	0xbda73819	-0.08164997
176	0x3c3dbf9d	0.011581329
177	0xbe6c15d6	-0.23055205
178	0x3ddcd936	0.10783617
179	0xbe5b6f17	-0.21429096
180	0x3d3e0c1f	0.04639828
181	0xbda5988e	-0.08085738
182	0x3dd0678f	0.10176002
183	0x3e024e7a	0.12725249
184	0x3e49b804	0.19699103
185	0xbd312295	-0.04324587
186	0xbe947b48	-0.29000306
187	0x3e0f020b	0.13965623
188	0xbe5b8988	-0.21439183
189	0xbe74fc94	-0.23924476
190	0x3e03b495	0.12861855
191	0xbc0ac882	-0.008470656
192	0xbe2b2420	-0.16713
193	0x3e289c04	0.16465765
194	0x3ca64f57	0.020301504
195	0xbd3c1b3d	-0.045924414
196	0xbdf9f4b5	-0.12204877
197	0xbe477b10	-0.19480538
198	0xbe95909a	-0.29211885
199	0x3d50ed38	0.05100748
200	0xbe55a9e3	-0.20865588
201	0xbeb01e81	-0.34398273
202	0x3daae0a1	0.08343626
203	0xbd82554b	-0.063639246
204	0xbe070e1c	-0.13188976
205	0x3cecb40a	0.028894443
206	0x3dbeda16	0.0931894
207	0xbe7760e1	-0.2415805
208	0x3e630f2a	0.22173753
209	0xbf0b921c	-0.5451982
210	0xbd7125d7	-0.058873978
211	0x3dc0bae2	0.09410645
212	0xbe225638	-0.15853202
213	0xbea1cabf	-0.31599995
214	0xbe45619b	-0.19275515
215	0x3d890154	0.066897064
216	0x3e9e6b60	0.30941296
217	0xbd80996b	-0.06279262
218	0xbe75ee6d	-0.24016733
219	0xbe9bbaab	-0.30415854
220	0x3e8e1835	0.27752843
221	0x3e3a5c11	0.18199183
222	0xbe9b27c4	-0.30303776
223	0xbe7828b8	-0.24234283
224	0x3d653334	0.055957034
225	0x3e8c7360	0.27431774
226	0xbe28c055	-0.16479619
227	0xbd60b0c0	-0.054856062
228	0xbdf4fcee	-0.11962305
229	0xbdb1695d	-0.086626746
230	0x3dce8440	0.100838184
231	0x3deba009	0.11505134
232	0xbdee0016	-0.1162111
233	0x3df789d5	0.12086836
234	0xbe1cf5be	-0.15328118
235	0x3cd37b29	0.025815563
236	0xbe3cf45c	-0.1845259
237	0xbdb00a50	-0.08595717
238	0x3e063366	0.13105544
239	0xbe507167	-0.2035576
240	0x3cb0cc44	0.021581776
241	0x3dadc291	0.08484376
242	0x3e620950	0.22073865
243	0xbdb1b369	-0.08676798
244	0xbe82cd29	-0.2554715
245	0x3d88986d	0.06669698
246	0x3e47d564	0.19514996
247	0x3dbc76f1	0.09202374
248	0xbdbc5fd4	-0.09197965
249	0x3d359ae3	0.044337165
250	0x3c0f0794	0.008729834
251	0xbe819027	-0.25305292
252	0x3de69b17	0.1126005
253	0x3d0ab0c8	0.033859998
254	0xbd3cbb0a	-0.04607681
255	0x3d2dda6f	0.042444643

mobilebone.1.1.weight f4 [64]
0	0x3f7983fc	0.9746702
1	0x3f79c789	0.9757009
2	0x3f81311f	1.0093116
3	0x3f802843	1.0012287
4	0x3f8313a5	1.024037
5	0x3f7d8d11	0.99043375
6	0x3f81f33f	1.0152358
7	0x3f7e838c	0.99419475
8	0x3f7f5466	0.99738157
9	0x3f7d9ab0	0.9906416
10	0x3f781d81	0.9692002
11	0x3f793f15	0.9736188
12	0x3f70cf05	0.94065887
13	0x3f82ec88	1.0228434
14	0x3f7fe8cc	0.99964595
15	0x3f7b10ef	0.98072714
16	0x3f8267f4	1.0187974
17	0x3f8017af	1.0007228
18	0x3f7d948f	0.9905481
19	0x3f833994	1.0251946
20	0x3f7c97f2	0.9866935
21	0x3f6e5e3a	0.9311253
22	0x3f74193a	0.9535099
23	0x3f82db02	1.0223086
24	0x3f7bddb8	0.9838519
25	0x3f80c165	1.0059019
26	0x3f8bf458	1.0933943
27	0x3f86d160	1.0532646
28	0x3f815f21	1.0107156
29	0x3f8235dc	1.0172687
30	0x3f78b1ed	0.97146493
31	0x3f77459f	0.9659061
32	0x3f81f6a7	1.0153397
33	0x3f7cae51	0.98703486
34	0x3f790003	0.9726564
35	0x3f883787	1.0641946
36	0x3f7cc477	0.9873728
37	0x3f83bd3d	1.0292126
38	0x3f802ca9	1.0013629
39	0x3f77809d	0.96680623
40	0x3f86f3d0	1.0543156
41	0x3f8271d9	1.0190994
42	0x3f796512	0.97419846
43	0x3f815339	1.0103523
44	0x3f83b406	1.0289314
45	0x3f774b40	0.965992
46	0x3f80bb42	1.0057147
47	0x3f876e5d	1.0580555
48	0x3f8965b6	1.0734165
49	0x3f7cdf27	0.98778003
50	0x3f7b9d67	0.9828705
51	0x3f834e68	1.0258303
52	0x3f80dcdd	1.0067402
53	0x3f811587	1.0084695
54	0x3f7fe3a9	0.99956757
55	0x3f79b7e8	0.97546244
56	0x3f80cefc	1.0063167
57	0x3f770c76	0.9650339
58	0x3f794287	0.9736714
59	0x3f737372	0.9509803
60	0x3f7b5e21	0.98190504
61	0x3f82535f	1.0181693
62	0x3f7eec45	0.9957927
63	0x3f82851c	1.0196872

mobilebone.1.1.bias f4 [64]
0	0xbd003c75	-0.031307656
1	0xbdb490ce	-0.08816682
2	0x3d75f32a	0.060046352
3	0xbcca3c1b	-0.024686864
4	0x3c32c565	0.01091132
5	0xbd95681d	-0.07295249
6	0xbd2df23f	-0.042467352
7	0xbb22e83e	-0.0024857665
8	0xbce5d39c	-0.028055005
9	0xbca1124d	-0.019662047
10	0xbca47bbd	-0.020078534
11	0x3c81542e	0.01578721
12	0xbd2bf09d	-0.041977514
13	0x3d416130	0.047211826
14	0xbd00405e	-0.031311385
15	0xbd5e37ec	-0.05425255
16	0xbc175091	-0.009235517
17	0x3c2b0c80	0.010439992
18	0xbd12a573	-0.035802316
19	0xbd32bf3d	-0.04363941
20	0x3bb0b50d	0.0053926767
21	0xbd9a2035	-0.07525674
22	0xbd33fa1b	-0.04393969
23	0xb803545f	-3.131141e-05
24	0xbcba4757	-0.022739096
25	0x3b8584de	0.004074677
26	0x3d022e62	0.031782515
27	0xbce36c80	-0.027761698
28	0xbca271c7	-0.019829644
29	0xbcda9cfb	-0.026686182
30	0xbc4af9bd	-0.012388644
31	0x3cb8e6ac	0.02257093
32	0xbd5430a1	-0.05180419
33	0xbce87cbc	-0.02837979
34	0x3c2f9b33	0.010718155
35	0x3b8304bb	0.0039983667
36	0xbd5ccc19	-0.05390558
37	0x3d020ba5	0.031749386
38	0xbc584aea	-0.013201455
39	0x3b82f64d	0.0039966465
40	0x3cb32905	0.021870146
41	0xbd81b91d	-0.06334136
42	0xbc88cd38	-0.016699418
43	0x3c3a9765	0.011388634
44	0xbcca6452	-0.02470604
45	0xbd2adf51	-0.041716877
46	0xbccf3925	-0.025295803
47	0x3cfcdcac	0.030866943
48	0xbd258e33	-0.040418815
49	0x3c088fcc	0.008335065
50	0xbc5ebc21	-0.013594658
51	0xbd5edeb0	-0.05441159
52	0xbd147b8f	-0.036250647
53	0x3b34b3cc	0.0027572988
54	0xba2da996	-0.00066246965
55	0xbc70e2f6	-0.014702549
56	0x3c24ebac	0.010065954
57	0x3aac93f2	0.001316665
58	0xbcc31d1c	-0.023817591
59	0xbd4fcdbb	-0.05073331
60	0x3bf9e742	0.007626445
61	0xbbdc0edf	-0.00671564
62	0xbcbfba84	-0.023404367
63	0xbab55138	-0.0013833409

mobilebone.1.1.running_mean f4 [64]
0	0x3ef7fac0	0.48433495
1	0x3f474cd3	0.778516
2	0xbf792687	-0.97324413
3	0xbf0dd2ae	-0.55399597
4	0x3a8d1556	0.0010763805
5	0xbec9c222	-0.39405924
6	0xbf920e8d	-1.141069
7	0xbc9e347e	-0.01931214
8	0x3e8bd5b6	0.27311486
9	0xbcafdd8c	-0.021467946
10	0xbec75070	-0.38928556
11	0xbf20e972	-0.6285621
12	0xbe917174	-0.2840687
13	0xbefa0a5f	-0.48836038
14	0x3f01594d	0.5052689
15	0x3f5d5660	0.8645992
16	0x3c83a3c7	0.016069306
17	0x3f034705	0.5128024
18	0x3fa5a7b6	1.2941806
19	0x3d300fdc	0.042983875
20	0x3eaa474a	0.33257514
21	0xbf028412	-0.50982773
22	0xbe14cffe	-0.14532468
23	0x3d4fc986	0.050729297
24	0x3e9b50bc	0.30335033
25	0xbf0ee4b5	-0.5581773
26	0xbe79a588	-0.24379551
27	0x3b54c6e2	0.0032467176
28	0x3ea84342	0.32863814
29	0xbeb7749d	-0.35831156
30	0xbd8714b0	-0.06595743
31	0x3e2be534	0.16786653
32	0x3f519079	0.8186107
33	0xbdfe9cb5	-0.12432233
34	0xbf69d6d5	-0.9134343
35	0xbc2d8460	-0.010590643
36	0x3e848af3	0.2588726
37	0xbe9c4fd2	-0.30529648
38	0x3ddf219c	0.10895082
39	0xbf7f55c6	-0.99740255
40	0x3ec3fdf2	0.38279682
41	0xbe8dbc7b	-0.27682862
42	0xbe6f8703	-0.23391347
43	0x3e041bc3	0.12901215
44	0xbe385a3e	-0.18003175
45	0x3e3b1963	0.18271403
46	0x3f0d286f	0.5513982
47	0xbe8ac531	-0.2710357
48	0xbc5428da	-0.012949193
49	0xbe04a957	-0.12955223
50	0x3f8ef561	1.1168634
51	0x3ed6de82	0.41966635
52	0xbd6d4e8d	-0.05793624
53	0x3ec19fd0	0.3781724
54	0x3e81b29b	0.25331578
55	0x3ed749e1	0.42048553
56	0xbeebffe8	-0.46093678
57	0xbe970598	-0.29496455
58	0x3eb55f87	0.35424444
59	0x3e8442e4	0.25832283
60	0x3ed82165	0.42212978
61	0x3ddf98c7	0.10917812
62	0xbe2c5eef	-0.1683309
63	0xbe20baf9	-0.15696324

mobilebone.1.1.running_var f4 [64]
0	0x3ef5c21b	0.47999653
1	0x3e572557	0.21010338
2	0x3f05f6d0	0.5232973
3	0x3eb17bfe	0.3466491
4	0x3e7abf56	0.24487051
5	0x3dd80717	0.10548227
6	0x3f1e8a0d	0.619294
7	0x3d8b650c	0.068063825
8	0x3f919dbd	1.1376263
9	0x3fd85710	1.6901569
10	0x3f32e9e6	0.6988815
11	0x3e85c1d8	0.26124454
12	0x3e9202b7	0.28517696
13	0x3e82b63d	0.25529662
14	0x3e1106c0	0.14162731
15	0x3f5fec11	0.87469584
16	0x3e065d1c	0.13121456
17	0x3e950765	0.29107204
18	0x3f1eb42c	0.6199367
19	0x3d918544	0.071054965
20	0x3ea36172	0.31910282
21	0x3eb738e2	0.35785586
22	0x3d88ff25	0.0668929
23	0x3e6519aa	0.22373071
24	0x3f98715d	1.1909596
25	0x3f53ea9b	0.82779855
26	0x3e8db08a	0.2767375
27	0x3e301cc6	0.17198476
28	0x3ef03a67	0.46919557
29	0x3e46fed2	0.19433144
30	0x3e3b2bb3	0.18278389
31	0x3e5a6587	0.21327792
32	0x3e9492b5	0.2901818
33	0x3e3babb8	0.18327224
34	0x3f4229b3	0.7584488
35	0x3e87ce0a	0.26524383
36	0x3e2df29d	0.16987081
37	0x3eb7a4df	0.35867974
38	0x3e35ea3e	0.17765138
39	0x3ef4a5a7	0.47782633
40	0x3f0a5e1c	0.5404985
41	0x3d31e254	0.043428734
42	0x3e4a853b	0.19777386
43	0x3f13363e	0.5750464
44	0x3e44a917	0.19205128
45	0x3f166576	0.5874857
46	0x3f0f605f	0.56006426
47	0x3eb9f07b	0.36316285
48	0x3d40655d	0.046971668
49	0x3eeae96b	0.4588121
50	0x3e92b177	0.2865102
51	0x3e103be1	0.14085342
52	0x3e83fd85	0.25779358
53	0x3e8ca5d4	0.27470267
54	0x3ef25cce	0.4733643
55	0x3ed47ea7	0.41502878
56	0x3ebcae56	0.36851758
57	0x3e836e11	0.25669912
58	0x3ef92f2f	0.4866881
59	0x3e8f764b	0.28019938
60	0x3eb975ac	0.3622259
61	0x3efd5403	0.49478158
62	0x3f03de0b	0.51510686
63	0x3ea12f0d	0.3148121

mobilebone.2.0.weight f4 [128, 64, 1, 1]
0	0xbe5fa394	-0.21839744
1	0xbe03a9b0	-0.128577
2	0xbe7e6e2e	-0.24846718
3	0x3ce42a11	0.02785209
4	0xbbfa3909	-0.0076361937
5	0x3e5296aa	0.20565286
6	0xbd2543e4	-0.04034795
7	0xbdf1fe51	-0.11816085
8	0xbd34becb	-0.044127267
9	0xbdd8758a	-0.10569294
10	0xbcb1f19b	-0.021721652
11	0xbe09df3d	-0.13464065
12	0xbc254caf	-0.010089084
13	0xbdd917d3	-0.10600247
14	0x3d8ed137	0.06973498
15	0xbe1f3959	-0.1554922
16	0xbb4d7f53	-0.0031356409
17	0xbe463ffd	-0.19360347
18	0xbd4521ac	-0.048127815
19	0xbdd070c5	-0.10177759
20	0xbe4c3d2a	-0.19945207
21	0x3e51de68	0.20494998
22	0xbcb60af7	-0.022222025
23	0xbe734b55	-0.23759206
24	0x3db09203	0.086215995
25	0x3d406018	0.046966642
26	0x3bb20444	0.0054326374
27	0x3c48f9f7	0.0122666275
28	0x3e6eb13f	0.23309802
29	0x3e5ce390	0.21571183
30	0x3dbf99de	0.0935552
31	0xbdf039a8	-0.11729747
32	0x3e978e45	0.2960073
33	0x3e08c72f	0.13357233
34	0xbe26eb59	-0.16300716
35	0xbe0c7063	-0.13714747
36	0x3dfa1a72	0.12212075
37	0x3d4ef91e	0.050530545
38	0xbe4774dd	-0.19478174
39	0x3dc4e109	0.096132345
40	0xbcc55670	-0.024089068
41	0xbca224be	-0.01979291
42	0xbddebdfd	-0.10876081
43	0x3b22ac43	0.0024821914
44	0xbcad4ea7	-0.021155668
45	0xbc769196	-0.015049359
46	0x3e966974	0.2937733
47	0xbd297e90	-0.041380465
48	0x3c169354	0.009190399
49	0xbdbfd14b	-0.09366091
50	0xbeb6a291	-0.35670903
51	0x3d8747b0	0.0660547
52	0xbd3ce8a7	-0.046120312
53	0xbc99d41e	-0.018777903
54	0xbbf1aca0	-0.007375315
55	0x3daf4385	0.085578
56	0x3d96a1cf	0.07355081
57	0x3e05d07e	0.13067815
58	0xbe3320dd	-0.17493005
59	0x3d413eea	0.04717914
60	0xbe0983cd	-0.13429184
61	0xbe85b8da	-0.26117593
62	0xbd955649	-0.07291848
63	0x3be4b9d8	0.006980162
64	0x3cbdda4c	0.023175381
65	0x3dd675b1	0.104716666
66	0xbdee9cc0	-0.116509914
67	0xbd2de04e	-0.04245024
68	0x3eae9a79	0.34102228
69	0xbda9862f	-0.082775466
70	0xbda854c9	-0.082192965
71	0xbd927cb0	-0.071526885
72	0x3e2201ae	0.15820953
73	0xbdaf9381	-0.08573056
74	0xbd2d219c	-0.04226838
75	0x3e268a31	0.16263653
76	0x3d94398f	0.07237541
77	0x3df5d74b	0.120039545
78	0xbd90c0d1	-0.07068027
79	0xbc8bc835	-0.01706324
80	0x3d32fda1	0.04369891
81	0x3e0b4073	0.13598804
82	0x3d8f9ed7	0.07012718
83	0xbe8804f4	-0.2656628
84	0xbd18356b	-0.03716032
85	0x3e2751eb	0.16339843
86	0xbd7ccaff	-0.06171703
87	0xbe90fc3d	-0.28317443
88	0xbe09fdbe	-0.13475701
89	0x3d08f5af	0.033437427
90	0x3e1aec3b	0.15129177
91	0xbd80340a	-0.06259926
92	0x3de5b43a	0.11216016
93	0xbe5035ba	-0.20332995
94	0xbd0e0ca3	-0.03468002
95	0x3d8a7741	0.06761027
96	0xbcef5283	-0.02921415
97	0x3e994e71	0.2994266
98	0x3e222b1a	0.15836754
99	0x3d05da96	0.032679163
100	0xbdb01dad	-0.0859941
101	0xbd9c7a04	-0.0764046
102	0x3d26d2f9	0.040728543
103	0xbe44f7c1	-0.19235136
104	0xbde12032	-0.10992469
105	0x3e2e3c09	0.17015089
106	0x3cd7e2ae	0.026353206
107	0x3cc63149	0.024193423
108	0x3dee7358	0.11643094
109	0xbd4c815b	-0.04992805
110	0xbe098042	-0.13427833
111	0xbe38ae49	-0.18035235
112	0xbe135196	-0.14386591
113	0xbea36f58	-0.31920886
114	0xbe1b3af7	-0.15159212
115	0xbe3b6b82	-0.1830273
116	0x3dc3994c	0.095507234
117	0x3c4d7814	0.012540836
118	0xbd920fb3	-0.07131901
119	0xbcf354fc	-0.02970361
120	0x3cc1eb1c	0.02367168
121	0x3c0e31d5	0.008678873
122	0xbd9801b7	-0.07422202
123	0xbe25c369	-0.16187824
124	0xbd1cc482	-0.038273342
125	0x3cae2123	0.021256035
126	0xbe25948a	-0.16169944
127	0x3d2cd6eb	0.04219715
128	0xbe1d1beb	-0.15342681
129	0xbe65074c	-0.22366065
130	0xbd38fdcd	-0.04516392
131	0xbaeda2ba	-0.0018130161
132	0x3e002eff	0.12517928
133	0x3e900f83	0.28136835
134	0x3db9714e	0.09054814
135	0xbe4e71a4	-0.20160538
136	0x3de16f50	0.11007559
137	0xbe0c2297	-0.1368507
138	0xbd3957e3	-0.04524983
139	0xbd47aabe	-0.048746817
140	0x3d364b01	0.044505123
141	0x3dbf3fd8	0.09338349
142	0x3df2368a	0.11826809
143	0x3e0d390e	0.13791296
144	0x3dfd397c	0.1236448
145	0xbe227f2e	-0.15868828
146	0xbe63aa7c	-0.22233003
147	0x3e39bb11	0.18137766
148	0xbdc908b7	-0.09816115
149	0x3df933c1	0.121680744
150	0x391339a0	0.0001404048
151	0x3dc40e13	0.09572997
152	0x3e32f7df	0.17477368
153	0x3d3407c2	0.04395271
154	0x3dd0326c	0.10165867
155	0xbc6179b2	-0.013761925
156	0xbd8c1946	-0.06840758
157	0xbe3cfaca	-0.18455043
158	0xbdb27cbe	-0.08715199
159	0xbd69f4c6	-0.0571182
160	0xbdae9d53	-0.08526101
161	0xbda9dc0c	-0.08293924
162	0x3e02e941	0.12784292
163	0xbd52bc67	-0.051449206
164	0x3dd64b36	0.10463564
165	0x3e8729d3	0.26399097
166	0x3e53b54c	0.20674628
167	0xbe5ca07c	-0.21545595
168	0xbd6210d2	-0.055191822
169	0xbe80fe71	-0.25194123
170	0xbd885032	-0.06655921
171	0x3e893275	0.26796308
172	0x3e64e577	0.22353159
173	0x3cb71028	0.022346571
174	0xbd5009de	-0.05079066
175	0x3e835b46	0.25655574
176	0xbd6fcf90	-0.058547556
177	0xbda763ab	-0.08173307
178	0xbca41a65	-0.020032117
179	0xbcbc9dcb	-0.02302446
180	0xbe802c6e	-0.25033897
181	0xbdbe2921	-0.092851885
182	0x3d7d6125	0.061860222
183	0xbc5baea0	-0.013408333
184	0x3d3108a5	0.043221135
185	0x3d03feb8	0.03222534
186	0xbd73337f	-0.059375282
187	0x3cc0c489	0.023531215
188	0xbd881c29	-0.06645996
189	0xbdc102c5	-0.09424356
190	0xbe528e73	-0.20562153
191	0xbdda2e15	-0.10653321
192	0x3d7233bf	0.05913138
193	0xbed431fb	-0.41444382
194	0x3e1fa754	0.15591174
195	0xbdb8b94e	-0.09019719
196	0x3e1ad931	0.15121914
197	0xbd244d21	-0.04011262
198	0xbd4c7586	-0.049916767
199	0x3e149ed6	0.14513716
200	0x3da81023	0.08206203
201	0x3db88316	0.09009378
202	0x3d496c7d	0.049175728
203	0x3ddcee97	0.10787695
204	0xbd4c3328	-0.049853474
205	0xbdc595fa	-0.096477464
206	0x3e810ae8	0.25203633
207	0xbd91da86	-0.07121758
208	0xbd9435f2	-0.07236852
209	0x3d9a6bf1	0.075401194
210	0xbe2c3390	-0.16816545
211	0x3e527e62	0.20556024
212	0xbe7ff35a	-0.24995175
213	0x3d922391	0.0713569
214	0xbe3dfeb3	-0.18554191
215	0x3d5c116c	0.053727552
216	0x3d3cb7ed	0.046073843
217	0x3e534a0c	0.20633715
218	0x3da6f434	0.08152047
219	0x3e1e6849	0.15469469
220	0xbd633af0	-0.05547613
221	0xbe85de83	-0.26146325
222	0xbd48c0e0	-0.049012065
223	0x3dbfa058	0.09356755
224	0x3e18ee81	0.14934732
225	0xbe491c4b	-0.19639699
226	0xbe0c9fcf	-0.13732837
227	0x3c410cdd	0.011782852
228	0xbd75d06a	-0.060013212
229	0x3e559f3a	0.20861521
230	0xbe64250f	-0.22279762
231	0x3d84e109	0.064882345
232	0xbd4749bc	-0.048654303
233	0xbd682b9e	-0.05668222
234	0xbe524fe6	-0.20538291
235	0x39efc977	0.00045735735
236	0xbe75e63f	-0.24013613
237	0x3df792e5	0.12088565
238	0x3ce27577	0.027643902
239	0x3dbccbd8	0.092185676
240	0x3cedcabd	0.029027337
241	0x3cdfc3a5	0.02731497
242	0x3de184ba	0.11011644
243	0x3e28a8bb	0.16470616
244	0xbddd636d	-0.108099796
245	0xbe284bc2	-0.1643515
246	0x3ce288ac	0.02765306
247	0x3d2dc955	0.042428333
248	0x3ebc114d	0.3673195
249	0xbd2e1358	-0.042498916
250	0x3d762b2a	0.06009976
251	0xbe4a48ef	-0.19754384
252	0x3d863977	0.06553929
253	0xbcca1551	-0.024668368
254	0x3e01cde7	0.12676202
255	0x3daf0fdb	0.08547946

mobilebone.2.1.weight f4 [128]
0	0x3f789189	0.9709707
1	0x3f81c9fc	1.0139766
2	0x3f7d26f3	0.98887557
3	0x3f6f9cc6	0.9359859
4	0x3f82be14	1.0214257
5	0x3f795647	0.97397274
6	0x3f832aa7	1.0247391
7	0x3f74ee8f	0.9567651
8	0x3f81b867	1.01344
9	0x3f79d5b9	0.9759174
10	0x3f84a62b	1.036321
11	0x3f83b05f	1.0288199
12	0x3f80a09f	1.0049018
13	0x3f7472b3	0.9548752
14	0x3f847295	1.0347468
15	0x3f81f1ab	1.0151876
16	0x3f842633	1.0324157
17	0x3f78e3b2	0.97222435
18	0x3f80e02e	1.0068414
19	0x3f79baa5	0.9755042
20	0x3f788ff7	0.9709467
21	0x3f83b3b3	1.0289215
22	0x3f7a5962	0.9779264
23	0x3f7e0f0e	0.9924172
24	0x3f8114b2	1.0084441
25	0x3f7a9ff3	0.97900313
26	0x3f7bcce7	0.9835953
27	0x3f6abc94	0.91694
28	0x3f7fbd6c	0.9989841
29	0x3f7a822c	0.97854877
30	0x3f6fc1cc	0.93655086
31	0x3f81e13a	1.0146859
32	0x3f7bd90f	0.9837808
33	0x3f7b7c79	0.98236805
34	0x3f7a0b46	0.9767345
35	0x3f847039	1.0346748
36	0x3f828929	1.0198108
37	0x3f71e46c	0.9448917
38	0x3f7b5c13	0.9818737
39	0x3f80c0f5	1.0058886
40	0x3f7b8a14	0.98257565
41	0x3f7901c6	0.9726833
42	0x3f858d36	1.0433719
43	0x3f820c3d	1.0159985
44	0x3f726bef	0.94695944
45	0x3f7add4e	0.97993934
46	0x3f8276f3	1.019255
47	0x3f849566	1.0358093
48	0x3f7b9954	0.98280835
49	0x3f7bae77	0.9831309
50	0x3f7dc49c	0.9912813
51	0x3f75fe20	0.9609089
52	0x3f84313d	1.0327526
53	0x3f7bbf56	0.9833883
54	0x3f6f8e62	0.93576634
55	0x3f806a04	1.0032353
56	0x3f815971	1.010542
57	0x3f80678e	1.0031602
58	0x3f830976	1.0237262
59	0x3f7f4c15	0.99725467
60	0x3f7b5976	0.9818338
61	0x3f7de3b4	0.9917557
62	0x3f7d2c0d	0.9889534
63	0x3f87f8e8	1.0622835
64	0x3f8717d2	1.0554144
65	0x3f831923	1.0242046
66	0x3f80ed74	1.0072465
67	0x3f80251b	1.0011324
68	0x3f797f12	0.9745952
69	0x3f81078c	1.0080428
70	0x3f827ed2	1.0194952
71	0x3f78d92c	0.9720638
72	0x3f8207a3	1.015858
73	0x3f811824	1.0085492
74	0x3f7c75f9	0.9861751
75	0x3f793c08	0.97357225
76	0x3f761d68	0.9613862
77	0x3f7dfad6	0.9921087
78	0x3f7b66bf	0.98203653
79	0x3f8300a0	1.0234566
80	0x3f80ec44	1.0072103
81	0x3f773b28	0.9657464
82	0x3f794d12	0.97383225
83	0x3f80a75b	1.0051073
84	0x3f82b40d	1.0211197
85	0x3f80f1ad	1.0073754
86	0x3f7f8e44	0.99826455
87	0x3f813182	1.0093234
88	0x3f7aab36	0.979175
89	0x3f7ee647	0.99570125
90	0x3f72faa4	0.949137
91	0x3f8423d1	1.032343
92	0x3f786546	0.9702953
93	0x3f811b93	1.008654
94	0x3f77a224	0.9673178
95	0x3f809a5c	1.0047107
96	0x3f723c5c	0.9462335
97	0x3f7ffe55	0.99997455
98	0x3f74f857	0.95691437
99	0x3f840096	1.0312679
100	0x3f801071	1.0005018
101	0x3f7b7296	0.9822172
102	0x3f810384	1.0079198
103	0x3f834407	1.0255135
104	0x3f7db2af	0.99100775
105	0x3f79bb99	0.97551876
106	0x3f834595	1.025561
107	0x3f74babe	0.95597446
108	0x3f7fea30	0.99966717
109	0x3f82bba7	1.0213517
110	0x3f809669	1.0045902
111	0x3f6fea01	0.93716437
112	0x3f7433b5	0.953914
113	0x3f783a7c	0.9696424
114	0x3f762e1b	0.961641
115	0x3f7da543	0.99080294
116	0x3f882c67	1.063855
117	0x3f84f124	1.038609
118	0x3f781b81	0.9691697
119	0x3f83b338	1.0289068
120	0x3f8405a3	1.031422
121	0x3f8694f8	1.0514212
122	0x3f7f078f	0.9962091
123	0x3f7d1e8a	0.98874724
124	0x3f7f8399	0.9981018
125	0x3f87294e	1.055948
126	0x3f82a9c8	1.0208063
127	0x3f810b31	1.008154

mobilebone.2.1.bias f4 [128]
0	0xbd6acba4	-0.057323113
1	0xbd37f947	-0.044915464
2	0xbcf0b7c8	-0.029384509
3	0xbdfeee86	-0.124478385
4	0xba5ded13	-0.0008465808
5	0xbd2a7dd3	-0.0416239
6	0xbca96244	-0.02067674
7	0xbd53fdf3	-0.051755857
8	0x3d7fae78	0.062422246
9	0xbd4ada8a	-0.04952482
10	0x3bdda9a7	0.006764609
11	0xbbac04d0	-0.005249597
12	0xbb6c449c	-0.0036051637
13	0xbd5aa1f7	-0.053377118
14	0xbd079fdc	-0.03311144
15	0x3b4f4716	0.0031628064
16	0x3bdaee68	0.0066812523
17	0xbc58b4cf	-0.013226702
18	0xbd91e67c	-0.071240395
19	0xbd06fae3	-0.032954108
20	0x3becf8bc	0.0072318
21	0xbc760de1	-0.015017957
22	0xbce5de8e	-0.028060224
23	0xbb19b3b6	-0.0023453063
24	0xba0451e4	-0.0005047603
25	0xbac7726b	-0.0015216594
26	0xbc3fb641	-0.011701168
27	0xbd4f2f50	-0.05058223
28	0xba276f34	-0.0006387115
29	0xbd29d64a	-0.041464128
30	0xbd6f9f40	-0.058501482
31	0x3cf2e7c1	0.029651524
32	0xbd4e7bde	-0.050411098
33	0xbc49aa6a	-0.012308696
34	0xbd81601b	-0.06317159
35	0xbc81b670	-0.015834063
36	0x3c285290	0.010273591
37	0xbd1e4d5d	-0.038647998
38	0xbcd22d89	-0.025656478
39	0xbd769b11	-0.060206477
40	0xbcc19ac1	-0.023633363
41	0xbc94771f	-0.018123208
42	0x3ca24c4e	0.019811776
43	0x3ab2d70a	0.0013644409
44	0xbcd8b1e3	-0.02645201
45	0xbcd4e1dc	-0.025986604
46	0x3d130674	0.035894826
47	0xbcf614a7	-0.030039145
48	0xbd114666	-0.035467528
49	0x3b5b6405	0.0033476364
50	0xbcf7feea	-0.03027292
51	0xbb9bf500	-0.004759431
52	0x3611054a	2.1609762e-06
53	0xbc2d5eaa	-0.010581652
54	0xbd0d36fa	-0.034476258
55	0xbcb57f52	-0.022155438
56	0xbc430a11	-0.0119042555
57	0xbc9d40ce	-0.01919594
58	0x3c44847b	0.011994476
59	0xbccd9134	-0.025093652
60	0xbce64b6c	-0.028112136
61	0xbc7e52f4	-0.015522707
62	0xbc9d9466	-0.019235801
63	0xbd1330fb	-0.035935383
64	0x3cef436c	0.029206954
65	0xbd8dc62b	-0.06922563
66	0xbd0ca888	-0.03434041
67	0x3cd7abd3	0.02632705
68	0x3c1df802	0.009641649
69	0xbd7a650e	-0.06113153
70	0x3c9cd607	0.019145025
71	0xbc4b5d7a	-0.012412423
72	0xbbe6fcbc	-0.0070491713
73	0xbcf5b3e5	-0.029993007
74	0x3aa64162	0.001268428
75	0xbdca2996	-0.09871213
76	0xbd02f3bc	-0.031970724
77	0xbd234dee	-0.03986924
78	0xbc812db6	-0.015768867
79	0x3ca266d2	0.01982442
80	0xba93ce87	-0.001127676
81	0xbd2b9695	-0.041891653
82	0xbd5eef99	-0.054427717
83	0xbc1a2a7c	-0.009409543
84	0xbcfbc5be	-0.03073394
85	0x3cfadae4	0.030621953
86	0xbd0b886f	-0.03406566
87	0xbbdf72cb	-0.0068191043
88	0xbd009fbb	-0.03140233
89	0xbd3510c8	-0.044205457
90	0xbcf73752	-0.030177746
91	0x3d166a09	0.036722217
92	0xbbc161b6	-0.0059015406
93	0x3d01b0ca	0.03166274
94	0xbd8cd2d6	-0.06876151
95	0xbd83e0e1	-0.064393766
96	0xbd9f0733	-0.07765045
97	0x3cf77a45	0.03020967
98	0xbd42bb82	-0.047542103
99	0xbc84f01e	-0.016227778
100	0x3bc36579	0.005963024
101	0xbb713274	-0.0036803754
102	0xbd100d16	-0.03516873
103	0xbbfee4c5	-0.0077787363
104	0x3b88cdf7	0.0041749435
105	0xbd88bfe2	-0.06677224
106	0xbca94efd	-0.020667547
107	0xbd006656	-0.031347595
108	0xbd6a9add	-0.057276595
109	0xbc5e833e	-0.013581095
110	0xbd879c37	-0.066215925
111	0xbc44e37d	-0.012017128
112	0xbdff50c3	-0.12466576
113	0xbdc83bf1	-0.09777058
114	0xbd1a0845	-0.037605543
115	0x3cb6f942	0.022335652
116	0xbd6e845d	-0.0582317
117	0xbd2084c6	-0.039189123
118	0xbc717370	-0.014736995
119	0x3c346afc	0.011011835
120	0xbba7701f	-0.0051098014
121	0x3ce18426	0.027528834
122	0xbbe6987e	-0.0070372215
123	0xbd28ee53	-0.04124291
124	0x3c5409ec	0.012941819
125	0xbd75da42	-0.0600226
126	0xbd770a41	-0.060312513
127	0xbd8adf1d	-0.06780837

mobilebone.2.1.running_mean f4 [128]
0	0xbf253524	-0.6453421
1	0xbecd02b5	-0.40041128
2	0xbd4b5547	-0.049641874
3	0x3e812275	0.252216
4	0xbe21ee2b	-0.1581351
5	0xbe81cdf5	-0.25352445
6	0x3ef56bfa	0.47933942
7	0xbe324ba0	-0.17411661
8	0xbf4ae449	-0.79254586
9	0xbe05f7f2	-0.13082865
10	0x3f09d541	0.53841025
11	0x3d920107	0.07129102
12	0xbe647209	-0.22309126
13	0xbefa8866	-0.4893219
14	0xbeb6dcaa	-0.35715228
15	0xbf350fc1	-0.70727164
16	0x3ce10441	0.027467849
17	0xbf26a084	-0.6508868
18	0x3eb3e558	0.35135913
19	0xbebd6ebd	-0.3699855
20	0xbed0b5fe	-0.4076385
21	0x3e5e9bf5	0.2173918
22	0xbf254e40	-0.64572525
23	0x3eceb9af	0.4037604
24	0xbeeaa9f8	-0.458328
25	0xbe9eaa14	-0.30989134
26	0xbebdbebc	-0.3705958
27	0xbf3b2248	-0.73099184
28	0xbecdb44e	-0.40176624
29	0x3f51bfe2	0.81933415
30	0x3df23656	0.1182677
31	0xbe410b20	-0.188519
32	0xbc4205fc	-0.011842247
33	0x3ec9d5b8	0.39420867
34	0xbd29a967	-0.04142132
35	0x3f3d1061	0.7385312
36	0x3e4fbbca	0.2028648
37	0xbee25558	-0.44205737
38	0xbf47dbf5	-0.7807
39	0xbe7d4a19	-0.24735297
40	0xbde19dc1	-0.11016417
41	0x3ee9ff87	0.45702764
42	0xbe886a18	-0.26643443
43	0xbdac61c1	-0.084170826
44	0xbf0bc3ce	-0.5459565
45	0xbe586247	-0.2113124
46	0xbf673b79	-0.90325123
47	0xbf2688eb	-0.6505267
48	0x3e9ef2fb	0.31044754
49	0xbed8d412	-0.42349297
50	0x3f8ae13c	1.0849986
51	0x3f22f13f	0.6364936
52	0xbeb79966	-0.3585922
53	0xbeb3f912	-0.35150963
54	0x3d451ce4	0.048123255
55	0x3e780c3b	0.24223416
56	0x3e79f7c8	0.24410927
57	0x3e83df19	0.25756148
58	0x3e179f41	0.14806844
59	0x3ea377ce	0.3192734
60	0x3c86f0c6	0.016472232
61	0xbf283356	-0.6570333
62	0x3e39cdc1	0.18144895
63	0x3e87982f	0.26483294
64	0x3dc96408	0.098335326
65	0x3ec086f4	0.3760296
66	0xbe8c8e48	-0.27452302
67	0xbe9b9032	-0.3038345
68	0xbf8ba94f	-1.0911044
69	0x3e5a4ec6	0.21319112
70	0x3ed9ae7f	0.42515942
71	0xbf067a0d	-0.52529985
72	0xbee15195	-0.44007555
73	0xbefb0806	-0.4902956
74	0x3c8105a2	0.015749756
75	0x3f15048a	0.5821005
76	0x3ea5ad5d	0.32358828
77	0x3f1300b7	0.57422966
78	0x3e63ab71	0.22233368
79	0xbe9eee88	-0.3104136
80	0xbf167966	-0.5877899
81	0xbead79be	-0.33881944
82	0x3e4aa01b	0.19787638
83	0xbeed5e13	-0.46360835
84	0x3dfabb48	0.12242752
85	0x3f126bc9	0.5719572
86	0x3efaf793	0.4901701
87	0x3e4faa9f	0.2027993
88	0xbf1b35cd	-0.6062897
89	0xbe055f93	-0.1302474
90	0xbe37ec12	-0.17961147
91	0xbe9064cb	-0.282019
92	0x3e973d01	0.2953873
93	0xbef335f0	-0.4750209
94	0x3e0ca4c7	0.13734733
95	0xbf227c91	-0.63471323
96	0x3ed6e49b	0.41971287
97	0xbf8b2fe0	-1.0873985
98	0x3efddc06	0.49581927
99	0xbf0d6674	-0.55234456
100	0x3d7dc125	0.061951775
101	0xbf74574b	-0.954457
102	0x3ed652ec	0.4186014
103	0xbefe8cad	-0.49716702
104	0xbd329a1a	-0.043603994
105	0xbeb4e8f1	-0.3533397
106	0xbf1b133a	-0.6057621
107	0x3f223f5b	0.6337792
108	0x3f350fb0	0.7072706
109	0x3f524382	0.8213426
110	0x3e69fd39	0.22850503
111	0x3e95d0ba	0.29260808
112	0x3f0426eb	0.51621884
113	0xbec0b334	-0.3763672
114	0xbf879dd6	-1.0595043
115	0xbd613d33	-0.054990005
116	0x3e83d78e	0.25750393
117	0x3f1bcff4	0.60864186
118	0xbe0259cf	-0.12729572
119	0x3d4e21df	0.05032527
120	0x3ee84715	0.4536673
121	0xbf531d40	-0.82466507
122	0x3f353869	0.707892
123	0xbf2c19a5	-0.6722663
124	0xbe99faa8	-0.30074048
125	0x3e82d83f	0.25555608
126	0xbe9b7037	-0.3035905
127	0x3d9e80b4	0.07739392

mobilebone.2.1.running_var f4 [128]
0	0x3e95908d	0.29211846
1	0x3ecf5655	0.40495554
2	0x3ecc9b66	0.3996231
3	0x3eb74809	0.35797146
4	0x3e88c71f	0.26714417
5	0x3e631379	0.22175397
6	0x3f08440a	0.5322882
7	0x3efd8df2	0.49522358
8	0x3edce827	0.43145868
9	0x3e4c758b	0.19966714
10	0x3ea32681	0.31865314
11	0x3ec5f59e	0.38663954
12	0x3ebb3b42	0.36568648
13	0x3e67459d	0.22585149
14	0x3ec2c925	0.38044086
15	0x3ef73d79	0.48289087
16	0x3e638aae	0.22220871
17	0x3e606164	0.21912152
18	0x3e6b6f2b	0.22991626
19	0x3eaa0564	0.33207238
20	0x3f028aa4	0.509928
21	0x3ef307f4	0.47467005
22	0x3ea99c35	0.3312699
23	0x3f1cca00	0.6124573
24	0x3ece5b51	0.40304044
25	0x3ef2c31d	0.47414485
26	0x3f84c367	1.0372132
27	0x3ec5a206	0.38600177
28	0x3f3749f4	0.7159722
29	0x3f005521	0.50129896
30	0x3f299c00	0.6625366
31	0x3f5f8bb1	0.8732253
32	0x3ef035f0	0.4691615
33	0x3f3aa401	0.729065
34	0x3e65d16a	0.22443166
35	0x3e3e85f4	0.18605787
36	0x3ebc86fd	0.36821738
37	0x3fce2d8a	1.6107647
38	0x3e98b27f	0.29823682
39	0x3ea538e4	0.32269967
40	0x3e7ce16e	0.2469537
41	0x3ec7efa6	0.39050025
42	0x3eccbc11	0.39987233
43	0x3f3a76a5	0.7283729
44	0x3e97d335	0.29653326
45	0x3f8d5230	1.1040707
46	0x3ed95594	0.42448103
47	0x3e7c7538	0.2465409
48	0x3e0f7691	0.14010073
49	0x3e466235	0.193734
50	0x3f9c6cbd	1.2220684
51	0x3ece6799	0.40313414
52	0x3e21a849	0.15786852
53	0x3f167126	0.587664
54	0x3f7015ad	0.93783075
55	0x3ee4a421	0.4465647
56	0x3e9cf1e2	0.30653292
57	0x3ea888ee	0.3291697
58	0x3e5213c5	0.20515354
59	0x3f210287	0.6289448
60	0x3e922d07	0.28549978
61	0x3f5adb3c	0.85490775
62	0x3f1bc5a8	0.60848475
63	0x3e37d65d	0.17952867
64	0x3eb1dac2	0.3473721
65	0x3e811066	0.25207824
66	0x3f0eb6a5	0.55747443
67	0x3ef6d537	0.48209545
68	0x3f2a8351	0.6660662
69	0x3e4c3b12	0.19944409
70	0x3f0504dc	0.5196054
71	0x3f88cd25	1.0687605
72	0x3e93427e	0.28761667
73	0x3e9e8887	0.30963537
74	0x3f100de4	0.56271195
75	0x3ec65448	0.38736176
76	0x3f49e094	0.78858304
77	0x3eb23007	0.34802267
78	0x3f3f921d	0.74832326
79	0x3f002b3b	0.50065964
80	0x3f05945f	0.5217952
81	0x3f82a388	1.0206156
82	0x3f1fcd6e	0.62422836
83	0x3e69fb6b	0.22849815
84	0x3ef6b117	0.48181984
85	0x3f1e80a5	0.61915046
86	0x3f2fab45	0.6862071
87	0x3e77b529	0.24190201
88	0x3f41f85e	0.75769603
89	0x3e811689	0.25212505
90	0x3ec15c31	0.3776565
91	0x3f02c1bb	0.5107686
92	0x3f6eb674	0.9324715
93	0x3f13e6ba	0.57773936
94	0x3ed27052	0.4110132
95	0x3ecc09ed	0.39851323
96	0x3f04a737	0.5181765
97	0x3f54758f	0.8299188
98	0x3f1c590b	0.6107337
99	0x3e5a4619	0.21315803
100	0x3e2c54f5	0.16829284
101	0x3eff7135	0.49891058
102	0x3e65eced	0.22453661
103	0x3d95ee9e	0.07320903
104	0x3edad0ea	0.42737514
105	0x3ef2a28c	0.47389638
106	0x3db3bdb8	0.0877642
107	0x3ee3a365	0.44460598
108	0x3ed29060	0.41125774
109	0x3f0bb9fc	0.54580665
110	0x3eaaec88	0.33383584
111	0x3fa26eb5	1.2690035
112	0x3eab668c	0.33476675
113	0x3f056cb2	0.5211898
114	0x3f205a5c	0.6263788
115	0x3f3176f6	0.69322145
116	0x3dc50659	0.09620351
117	0x3f0e029e	0.55472744
118	0x3ea1a158	0.31568408
119	0x3e807b92	0.25094277
120	0x3ea9b7e9	0.33148125
121	0x3f74e439	0.9566074
122	0x3f198785	0.5997241
123	0x3f377a44	0.7167094
124	0x3f8dc99a	1.1077149
125	0x3f21536c	0.63017917
126	0x3ed2ca4e	0.4116997
127	0x3eddf9b8	0.43354583

mobilebone.3.0.weight f4 [128, 128, 1, 1]
0	0x3d95c849	0.07313592
1	0x3a726ccb	0.0009247779
2	0x3dbd1412	0.09232344
3	0x3e6c24ab	0.23060863
4	0x3d98fcfe	0.074701294
5	0x3b806993	0.0039188354
6	0xbdd11a29	-0.10210068
7	0x3ce0f565	0.027460763
8	0x3bfb9b60	0.0076784343
9	0x3db45ad3	0.08806386
10	0xbdaaf85d	-0.08348153
11	0xbd339a72	-0.043848462
12	0xbd994774	-0.07484332
13	0x3cf19bdd	0.029493267
14	0xbe37355c	-0.17891449
15	0x3ceae27a	0.028672446
16	0xbb97a51c	-0.004627837
17	0xbdf4f6a4	-0.119611055
18	0xbdb195a8	-0.08671123
19	0x3d2b27e2	0.041786082
20	0xbce4f7af	-0.027950136
21	0xbd5f0f4e	-0.054457955
22	0xbcd1ec94	-0.025625505
23	0x3d625711	0.055258814
24	0x3dddbb2a	0.10826714
25	0xbdeceea7	-0.11568957
26	0xbce4d74b	-0.027934691
27	0xbd917c22	-0.071037546
28	0x3bd52b51	0.006505408
29	0xbe2931ce	-0.16522905
30	0xbc624e45	-0.013812606
31	0xbdf3cf1f	-0.119047396
32	0x3e325bbf	0.17417811
33	0xbe696462	-0.22792199
34	0xbc7fa49b	-0.01560321
35	0xbcaec3e8	-0.02133365
36	0xbe6bf24d	-0.23041649
37	0x3d5412c3	0.051775705
38	0x3bd07624	0.0063617397
39	0x3c88d637	0.016703708
40	0x3d53937c	0.051654324
41	0xbeb586f2	-0.35454518
42	0xbca91d60	-0.02064389
43	0xbd838672	-0.06422128
44	0x3e0fb5d5	0.14034207
45	0x3e4772ba	0.19477358
46	0x3e1beb90	0.15226579
47	0xbe0a5081	-0.13507272
48	0x3a224ed9	0.0006191559
49	0x3da64459	0.08118505
50	0x3c417c78	0.011809461
51	0x3ddc81d4	0.1076695
52	0x3d70ecf9	0.058819745
53	0xbe291002	-0.16510013
54	0x3da7a119	0.08185024
55	0x3d8d570f	0.06901371
56	0xbe2f443f	-0.17115878
57	0x3e587eac	0.21142071
58	0x3d93338f	0.071875684
59	0xbd70375d	-0.05864655
60	0x3e5f44e2	0.2180362
61	0xbc446991	-0.01198806
62	0xbdccb825	-0.0999606
63	0xbdd374ef	-0.10325038
64	0x3da24eeb	0.07925209
65	0x3e0e5c5b	0.13902418
66	0xbe6fdcb7	-0.2342404
67	0x3e3983bb	0.18116657
68	0x3dcfcfca	0.101470545
69	0xbd394f9d	-0.04524194
70	0xbd8d60b5	-0.06903211
71	0xbcd2fc75	-0.025755147
72	0x3db3a737	0.08772128
73	0xbda92d4e	-0.08260594
74	0xbe06f15c	-0.13178009
75	0xbe3e1074	-0.18560964
76	0xbe1f1716	-0.1553615
77	0xbe846f07	-0.25865957
78	0x3d6f2faf	0.058395084
79	0xbccfd102	-0.025368217
80	0xbda8653b	-0.08222433
81	0xbe7d056c	-0.247091
82	0xbb4712c6	-0.003037618
83	0x3de25d2e	0.11052929
84	0xbc4c6255	-0.012474616
85	0xbdeb95a8	-0.11503154
86	0x3e0efea2	0.13964322
87	0x3db96be3	0.09053781
88	0xbe60850e	-0.21925756
89	0xbc2140ad	-0.00984208
90	0xbdf536bf	-0.119733326
91	0x3dab5627	0.08366042
92	0xbe005816	-0.12533602
93	0x3e340810	0.175812
94	0xbeb357d1	-0.35027936
95	0x3e5aef90	0.21380448
96	0xbdc2dae3	-0.095144056
97	0xbd9ea6f1	-0.07746685
98	0x3ce831fe	0.02834415
99	0x3de8ff53	0.11376824
100	0x3b8ab0a3	0.0042324825
101	0xbddf82c8	-0.109136164
102	0xbda4ccf1	-0.08046902
103	0xbdf8d194	-0.12149349
104	0xbdd0a5c7	-0.101878695
105	0xbe4b4d4e	-0.19853708
106	0x3d95bb87	0.073111586
107	0x3d5cbc0c	0.053890273
108	0x3b3c639d	0.0028745898
109	0xbd28dcea	-0.041226305
110	0xbe12cb60	-0.14335394
111	0x3e0eb578	0.13936412
112	0xbe8ddbcc	-0.27706754
113	0x3ad191d8	0.0015988899
114	0xbe9189d0	-0.28425455
115	0x3d09d492	0.03364999
116	0x3d3678d1	0.044548813
117	0xbd48b4c8	-0.04900053
118	0x3daf377f	0.08555507
119	0xbdcbb9ed	-0.09947572
120	0xbde11d41	-0.10991908
121	0x3e4ae399	0.19813384
122	0xbd9a8f47	-0.07546859
123	0x3dd25c3d	0.10271499
124	0x3c8e27ed	0.017353022
125	0x3e0cac10	0.13737512
126	0x3d8d898d	0.06911001
127	0x3c968a54	0.018376507
128	0x3b2d2c30	0.0026424043
129	0x3cd460a2	0.025924984
130	0x3d0a98d4	0.033837155
131	0x3df596e5	0.119916715
132	0xbe1a7ab8	-0.15085876
133	0x3df1d74f	0.11808645
134	0x3d8417e1	0.06449867
135	0xbe47cc58	-0.19511545
136	0x3d6e1582	0.05812598
137	0xbd8c059d	-0.06837008
138	0x3e64140b	0.22273271
139	0x3d74e05d	0.059784282
140	0x3e3128ec	0.17300767
141	0x3da99620	0.08280587
142	0x3d552a1b	0.052042108
143	0xbe28de74	-0.16491109
144	0x3c181268	0.009281732
145	0xbd3090f7	-0.043107
146	0x3d412210	0.047151625
147	0x3d58e927	0.052956726
148	0xbe3f2e70	-0.18670058
149	0x3c3a943e	0.011387883
150	0x3d83a5e6	0.06428127
151	0x3e022a15	0.12711366
152	0xbe070f17	-0.1318935
153	0xbd07de80	-0.033171177
154	0xbe374b0a	-0.17899719
155	0xbe1f668d	-0.15566464
156	0xbdd5ad4a	-0.10433443
157	0x3e013187	0.1261655
158	0xbdbb67e0	-0.09150672
159	0x3d752afc	0.059855446
160	0xbda708f9	-0.08156008
161	0x3e66624e	0.22498438
162	0x3de30b6c	0.11086163
163	0x3c2aaae0	0.010416716
164	0x3dafc52e	0.08582531
165	0xbd2a32ff	-0.04155254
166	0x3d6c87b0	0.05774659
167	0xbb6e7418	-0.0036385115
168	0x3d083b5c	0.033259735
169	0x3e12e1eb	0.14343993
170	0xbd271f84	-0.04080154
171	0xbd3e6e72	-0.046492048
172	0x3d042862	0.032265075
173	0x3d6b3133	0.057419967
174	0xbce086f9	-0.02740811
175	0x3c818ad5	0.01581327
176	0xbd9e3036	-0.07724039
177	0x3e61185b	0.21981947
178	0xbd1842df	-0.03717315
179	0x3d25cc42	0.040478
180	0x3e777f09	0.24169554
181	0xbe3a2cf1	-0.18181206
182	0x3c8b1840	0.016979337
183	0x3c6bb505	0.01438642
184	0xbc262664	-0.010140989
185	0x3e83f922	0.2577601
186	0x3e04aa92	0.12955692
187	0x3e56234d	0.20911904
188	0x3e99e3ad	0.30056515
189	0x3d908fc8	0.07058674
190	0x3ddeafb6	0.10873358
191	0x3c82abaf	0.015951006
192	0x3d575a83	0.052576553
193	0x3dc671e7	0.09689694
194	0xbd041509	-0.032246623
195	0x3bcd8d7f	0.006272971
196	0xbe4afefe	-0.19823834
197	0xbd86e8fa	-0.065874055
198	0x3db7379c	0.089461535
199	0x3e913938	0.28363967
200	0x3e2ccb56	0.16874442
201	0x3db994d5	0.090615906
202	0xbd286194	-0.041108683
203	0xbdf5765f	-0.11985468
204	0xbc63ce57	-0.013904176
205	0xbe4475e8	-0.19185603
206	0x3ce29f9b	0.027663996
207	0xbbf0826a	-0.0073397653
208	0x3dc3181d	0.095260836
209	0x3d683adc	0.056696758
210	0xbd4a02b8	-0.049319
211	0xbde93217	-0.11386507
212	0xbe097c0b	-0.13426225
213	0x3d98a923	0.07454135
214	0xbd9fcc76	-0.0780267
215	0x3e57018e	0.20996687
216	0xbd00485b	-0.031319004
217	0xbd47a88d	-0.048744727
218	0x3dd4baf6	0.103872225
219	0xbd92da14	-0.07170501
220	0xbb882299	-0.004154515
221	0xbdb64d00	-0.08901405
222	0x3b0a5c83	0.002111227
223	0xbe576f85	-0.21038635
224	0xbe39778a	-0.18112007
225	0x3b930b0e	0.004487402
226	0xbc1fdf19	-0.0097577805
227	0x3dbd6ddf	0.09249472
228	0x3d87e037	0.066345625
229	0xbd93d49b	-0.07218286
230	0x3dc508d1	0.09620822
231	0x3e8f5767	0.2799637
232	0xbe4a3ebf	-0.19750498
233	0xbdacbdfb	-0.084346734
234	0x3d0a12c1	0.03370929
235	0xbdc4e375	-0.096136965
236	0xbdfc291c	-0.123125285
237	0x3cef51e5	0.029213855
238	0xbd6de22c	-0.058077022
239	0xbdbb07e3	-0.09132364
240	0xbe8454f4	-0.25846064
241	0xbc8644c0	-0.016390204
242	0x3da88496	0.08228414
243	0x3e4d9551	0.20076491
244	0xbcff736c	-0.031182967
245	0x3e650e0d	0.22368641
246	0xbdf52b45	-0.11971144
247	0xbda67171	-0.08127106
248	0x3dae7b38	0.08519596
249	0x3e3554fe	0.17708203
250	0x3c8d07b4	0.017215587
251	0xbcbf57cd	-0.023357296
252	0xbd804d1a	-0.06264706
253	0x3df89681	0.12138081
254	0x3e0ede70	0.1395204
255	0xbbb6e2e1	-0.0055812453
